model/model.pth (torch, 16799 bytes, 4 tensors)

l1.weight f4 [256, 11]
00000000: fac5 a03d 1bbe cabd bd2b b23d 0902 c5bd
00000010: c89a fa3e efb4 39be 96ca febe 783d 563d
00000020: 7a4d fbbe 8283 eabe 89df 803e a33d d73d
00000030: 31c5 38bc 3f49 b33d 68d6 02be d497 db3c
00000040: 3cb7 083e ec73 60be 79d6 8bbe f83b 36be
00000050: 5d7e 87be 68c5 583e 990b 0abd 0ed1 a3be
00000060: cf24 0cbe 7632 3e3e 8df3 c2be c9fd 1ebe
00000070: 5d8b c03e 5078 3e3b 6185 25bf 1554 593e
00000080: 988d 66be cd7d dd3c b350 de3d 9a6d 22be
00000090: 549f cf3e eced 5a3e 0a81 70be 4743 40be
000000a0: 5a57 01bf a956 ccbe 6ca2 893e ccb9 5cbe
000000b0: ecb4 ccbd 88db 3cbe e6ea 57be 7914 d63e
000000c0: d8cc d5be f1a8 c43e 5cbf aabe e89a a6be
000000d0: 3ec9 de3e 831e b9be 2fd6 cbbe ea75 083f
000000e0: 1d87 0cbe 781b 02bf d57a 2cbe 86e9 a8be
000000f0: fd7c 893e a905 383e cf3b 81bd 01c3 e93d
00000100: 44ef fabe a422 cfbe f504 8dbd 3ec5 e93e
00000110: fe6c dbbc d3ff 193e 23b4 09be 13ee 6a3d
00000120: c8e5 39bf 068f 2b3e 3ef6 c0be 6cef debe
00000130: a781 99be bebb 60be e795 13be c269 bd3e
00000140: 8f1f a63d 2b0f a03e 119b 863e 9a8e fabe
00000150: 21c7 adbe df48 ab3d ba93 fabe 08fc 5fbd
00000160: f703 513e f3a4 e43d fb54 35bf 31a1 ad3c
00000170: f6fb 7cbd 0143 b7bd 85ed 91be 7f7b 3c3e
00000180: 47fc ae3e b486 893e de6d db3e f5d7 cfbd
00000190: 01bd 7e3e 4807 e93e f391 0a3e d0cd 26be
000001a0: f5f6 093e 1ec7 893e 723d ffbd cd1a 3fbe
000001b0: cd9c 683e 5213 553e 5f6c 76be 06da 52be
000001c0: a0ea 323c eebd 6cbe e036 cebc 705a 40be
000001d0: 7c12 4dbe 603a 9f3c a6e8 1abe 12fa 2f3e
000001e0: 1ea3 493e ccee a8be 8089 84be 525f f83e
000001f0: 6b3a f5be 5938 ef3d 2f60 183e 001c 113e
00000200: 4e03 77be 2266 e33d 6c3e c53d 5a09 e33e
00000210: d7be 4c3e d5ee 1b3e 4a78 483e ceae 70be
00000220: 07eb 39be 2406 fcbd cb6b 3fbe ab35 d43d
00000230: 15a0 023e eeb5 363e 78a8 2e3e 613a 0f3e
00000240: c52f fabe 73ea 963e 6335 a23d 4b7f 29be
00000250: 8d2d 373e 867c c23e 02a4 98be 3666 d8be
00000260: 6a99 933e f0e3 2f3e 148f 11bf 04da 0c3f
00000270: ec01 5b3e bfa8 433e ca96 0f3c 4fd7 013e
00000280: 90ce 57be 74e8 243e e366 613e 7fe6 75bc
00000290: c051 b9bd 9145 a4bd f38b 4a3e af07 7bbe
000002a0: 4c98 25be 1a34 0f3e 92d1 11be 694b c73e
000002b0: 84f7 c2be 28b0 c4bd 8ad6 393e f315 edbe
000002c0: c7a1 66bc 93a5 22be 1255 8d3d ad51 ca3e
000002d0: 1a77 eabe cef4 0ebf cf14 bf3d 2617 a33e
000002e0: c063 00bf 55e9 03bf c22c 2cbf 3e60 443d
000002f0: c17f 003f 068e 563e aa31 8abe dc5c b93d
00000300: 41ae 94bd 2786 65be 2d4c 063e 3387 d7bd
00000310: 5499 0abf f76e 5e3e 73ec 5d3e 5ad0 1c3d
00000320: 2082 f53e 54fa 203e 21a9 a3be 90dd 6ebe
00000330: 57f7 cfbd 6bb0 93be e8f8 4d3e ffaa c83e
00000340: fb89 00be 291d 69be 2183 1c3f c23b 80be
00000350: d3c3 ca3d 942c 0ebe d94a 093e b5ab ecbe
00000360: 8c9f 903e 424d d0bd 03a9 86be 4315 2e3e
00000370: 6343 8dbe b892 153e 3476 7b3d 51ea a7bb
00000380: 6729 e1bb 27c2 843d de20 d13d 96ef 1cbe
00000390: d0e5 49be 2eca a5bd d88f 0fbe 1050 3ebe
000003a0: 7057 533d 8303 173f 9b6b 943d 0814 9cbe
000003b0: 7ca7 543e 7849 44be 9522 553d af65 b93e
000003c0: 57b0 8abd 8467 bf3e 0ed6 063f 66da 35bf
000003d0: dc76 023d cf0f 83be b239 7abe ee0e cc3e
000003e0: b58f e53e cc52 5f3e 9b26 3c3e 5939 06bf
000003f0: a5e7 01bf fa4f 053e 13e1 093e 2616 0e3f
0.07850261 -0.09899541 0.08699749 -0.09619529 0.48946214 -0.18135427 -0.49763936 0.052304715
-0.49082547 -0.45803457 0.25170544 0.10509803 -0.011277483 0.08754205 -0.12777102 0.026805796
0.13351148 -0.2191922 -0.27312067 -0.17796314 -0.26463595 0.21169055 -0.033702467 -0.31995434
-0.13685916 0.18573937 -0.3807644 -0.15526499 0.37606326 0.002906341 -0.64656645 0.21223481
-0.22514951 0.027037526 0.10855236 -0.15862122 0.40551245 0.21379822 -0.23486724 -0.18775664
-0.5052391 -0.39909866 0.2688173 -0.21555251 -0.099954456 -0.1844312 -0.210857 0.41812494
-0.41757846 0.38410142 -0.3334912 -0.3254006 0.4351291 -0.3615609 -0.39811847 0.5330492
-0.13723417 -0.50823164 -0.16843732 -0.32990664 0.2685317 0.17970909 -0.06310236 0.11414147
-0.4901067 -0.40456116 -0.06885711 0.45658296 -0.02678537 0.15038995 -0.13447623 0.05735595
-0.72616243 0.16753778 -0.37687868 -0.4354204 -0.2998173 -0.21946618 -0.14412652 0.3699475
0.08111488 0.31261572 0.2629018 -0.4893692 -0.33940986 0.083635084 -0.4894083 -0.054683715
0.20411669 0.11164274 -0.70832795 0.021195026 -0.061763726 -0.08948327 -0.28501526 0.18406485
0.34176847 0.26860583 0.4285726 -0.101486124 0.24876787 0.45513368 0.13532238 -0.16289449
0.13473113 0.26909727 -0.12462892 -0.18662567 0.22716065 0.20808151 -0.24064778 -0.20590982
0.010920197 -0.23119327 -0.02517265 -0.18784499 -0.20026582 0.019437015 -0.15127811 0.17185238
0.1969113 -0.32994688 -0.25886154 0.48510224 -0.47896132 0.11680669 0.14880441 0.14170837
-0.24122354 0.11103465 0.09631047 0.44343072 0.19994675 0.15227826 0.19577137 -0.23504183
-0.18156062 -0.12305859 -0.18693464 0.10361799 0.12756379 0.17842838 0.17056453 0.13987114
-0.4886457 0.29475746 0.07920339 -0.16552465 0.1788847 0.3798563 -0.29812628 -0.4226548
0.28827983 0.17176795 -0.56858945 0.55020165 0.21387452 0.1910734 0.008763978 0.1267979
-0.21074891 0.16104299 0.22011904 -0.015008568 -0.09048796 -0.08021081 0.19779949 -0.2451465
-0.16171378 0.13984719 -0.14240101 0.3892472 -0.38079464 -0.09603912 0.18148246 -0.46305808
-0.014076657 -0.15883474 0.069009915 0.3951544 -0.45793992 -0.5584229 0.09330141 0.31853598
-0.50152206 -0.5152791 -0.67255795 0.047943346 0.50194937 0.20952615 -0.26991016 0.09050915
-0.07259799 -0.22414456 0.13114996 -0.10523834 -0.5414021 0.21722017 0.2167223 0.038284637
0.4795084 0.15720493 -0.31964973 -0.23326707 -0.10154598 -0.28845534 0.20114481 0.3919296
-0.12552635 -0.2276503 0.61137587 -0.25045592 0.09900632 -0.13884193 0.13407458 -0.46224752
0.28246725 -0.10170986 -0.2630082 0.17000298 -0.27590474 0.1460675 0.061392024 -0.0051243682
-0.0068713906 0.06482344 0.10211347 -0.1532577 -0.19716573 -0.08095203 -0.14019716 -0.18585229
0.05159706 0.58989733 0.072470866 -0.30484033 0.20767015 -0.19168651 0.052034933 0.3621039
-0.067719154 0.37383664 0.5267037 -0.71036375 0.031851634 -0.25597998 -0.24436072 0.3985514
0.44836202 0.21808928 0.18374102 -0.52431256 -0.50744087 0.1301879 0.13464765 0.55502546

l1.bias f4 [256]
00000000: 5d5b 50bd c9f8 89be 9ceb d23e 065f f5bd
00000010: 279d 27bd 0022 0a3e 1627 053c 7b20 b0bd
00000020: f4ef abbe 0265 a9be 1ab2 94be 55f0 973a
00000030: 840c 56be 3a90 67bb 6617 8bbd 0e75 2cbe
00000040: b563 553d 7a41 f9bc 7ca7 0bbe 2d89 a2bb
00000050: 8c12 cd3e a4e6 4ebe b679 093d 0552 a1be
00000060: 06ba cf3e 6228 dabd 1a31 0d3e 2306 6cbe
00000070: 762a e7bd 8772 80bb a4f1 20bd f3db 623d
00000080: 1745 89bb 3a5d 333e e5c9 70be 9b08 1bbe
00000090: 4d36 3cbe dd64 1cbe 4532 0a3e dcbc 20be
000000a0: 3d31 a4be 8e96 b3be e2b4 8abe b5f3 89be
000000b0: 65cd 263e 4014 e83d 4510 7dbe 3ae4 b1be
000000c0: 625c adbe db7f 91be ccf9 a03d 1764 91be
000000d0: d48f 40be 30e7 bebd 5022 bcbd 7eed 523e
000000e0: 0845 d5be f256 62be 21cf 98be 416a 2d3c
000000f0: 9b80 a7be d712 833e 29ee 7f3e 620c f73e
00000100: ef06 543e d32d 12be 1f89 afbc 8de0 1c3e
00000110: 0bbb a2be be2e 8fbe 93b9 c13e c6ee ddbd
00000120: 3290 51bd d5cc 83be 6ba4 3bbc 4406 f53d
00000130: 364a eabd bcb6 73bd cccb c3ba d9c0 e1bb
00000140: 34e8 c8be f230 e1bc 5996 033e ff8a b33e
00000150: 4ba4 a23e bb4e 8ebe 7e40 cabc 3491 ae3d
00000160: b147 56be 5c3d b9be 755d 15be 83b6 7a3d
00000170: 94a2 afbd 669e c6bd 0846 fcbd 957c ed3e
00000180: c9f0 cd3e 75ce c63e 5e08 af3d 2ce6 ad3d
00000190: b279 3bbe c254 9dbe 1663 33bd 90b0 c7bd
000001a0: 57c2 1a3f 69f1 07be 4843 49bc 8a34 94be
000001b0: 2b6b 583e 101b abbd e2cd c1be 5ec7 83bc
000001c0: 4418 95be 2352 10be 82a7 c5be 5118 823d
000001d0: 22b6 1e3f 3f44 c2bd 22df f83d c8bf ae3d
000001e0: 6fbc f63d b729 2abe c3d9 1cbe 56b9 b3bc
000001f0: 932f a4be dc56 8abe 8857 2bbe 923d 2bbe
00000200: 9e93 13be 774a e03e 7157 683e be60 5bbb
00000210: 25ba b0bd d1c6 22be e894 d8bd 8196 033f
00000220: d491 b1be e949 b13d c297 f93e d1d3 1bbe
00000230: 4e82 ae3d 9689 32be f2c9 71bd 28ea 773e
00000240: 337f bebe c38a 31be 6f3f 78be 43e4 58be
00000250: 0f97 4e3e 358f d83d 1b61 d0be f775 9c3e
00000260: a0b9 8bbd 7b55 c03d b2a6 1c3e ba32 c9bd
00000270: dbd7 aa3d 3165 42be 50d8 d538 5f72 f2be
00000280: b4f3 1e3c 25f7 6f3d 03a5 a3be 01ee f3bd
00000290: 128f 143f bfd7 8dbe 920d efbe 3f1d 37be
000002a0: 5763 f03d 5b12 babe 2d00 0cbe c633 63be
000002b0: a361 85be a15d dcbd 50bd a53e 538c 5cbe
000002c0: 1d7b 78be ea4f 57be b9e7 d6be 6cd4 dbbd
000002d0: 29d0 363d e4a2 9c3e 739e b9bd b1c0 2d3e
000002e0: cddd c4bd c859 163e 35b1 25be 8017 12be
000002f0: 41eb 10bd 2b55 ccbe 012d 8fbe 99a8 12be
00000300: 62ed ca3d 80bf 5cbe 633c 003e 49d1 28bd
00000310: 24e9 323e 4d33 35be 89a4 90be d2c1 353e
00000320: f2ad 8dbe 5a4d 6abe 1d1b b4be 6f78 013e
00000330: bca8 8fbd 9a60 bd3e 37bb 50be 4edb 4abe
00000340: 7e72 34be 6bc8 bfbd afa5 af3e f587 f0bd
00000350: e44a 08be b8de 80be f372 323e 281f 7e3d
00000360: e146 813c 5569 8abe 6f4e 1abe 6fb0 97be
00000370: a947 87be b29a f5bd 6723 d73d ffdc 7bbe
00000380: 6108 b2be 14e8 2ebd 2f90 9b3e 68bd 32be
00000390: 7be4 0f3e dd9d 0abc a031 cfbe fc57 82be
000003a0: 6cd7 9dbe 5859 003e 8d2c e8bd 04de a33d
000003b0: 1ce7 8abe 407c 0abd 3750 53bd 89b2 8dbe
000003c0: d521 b6ba 5f9e 6bbd 624d 713c 90a0 933c
000003d0: 2d9a 4dbe 067c 9bbd ac12 e03d 9ce4 2abe
000003e0: f4a3 95be a6b8 e8bb 3fbf 45be fdde 14bd
000003f0: ffec 57be b513 acbe a2af b93c c7fe aebe
-0.05086838 -0.2694762 0.4119538 -0.11981015 -0.040921357 0.13489532 0.008126995 -0.08599945
-0.33581507 -0.33084875 -0.2904213 0.001159201 -0.20903212 -0.0035333768 -0.06791572 -0.16841528
0.05209704 -0.03042673 -0.13638109 -0.0049602003 0.40053213 -0.2020517 0.03356334 -0.31507888
0.40571612 -0.10652234 0.13788262 -0.23049216 -0.11287396 -0.0039199027 -0.039292946 0.05538554
-0.0041891444 0.17516032 -0.23514517 -0.15140001 -0.18380089 -0.15272851 0.13495739 -0.15697044
-0.32068816 -0.35075802 -0.27091128 -0.26943746 0.1628929 0.113319874 -0.24713238 -0.34744436
-0.33859545 -0.28417858 0.07860145 -0.28396675 -0.18804866 -0.09321439 -0.09186232 0.20598409
-0.4165423 -0.2210348 -0.29845527 0.010584415 -0.32715306 0.2560031 0.24993195 0.48251635
0.2070577 -0.14275293 -0.02142769 0.15320034 -0.31783327 -0.2796535 0.37836894 -0.10836558
-0.051162906 -0.25742212 -0.0114527745 0.11964086 -0.11439936 -0.05950044 -0.0014938056 -0.0068894443
-0.39239657 -0.02748916 0.12850322 0.35066983 0.3176597 -0.27794442 -0.024688955 0.08523789
-0.20925786 -0.36179626 -0.14586432 0.061209213 -0.08575931 -0.09698181 -0.12318045 0.4638411
0.40222767 0.3882939 0.08546518 0.084911674 -0.18308142 -0.30728728 -0.043795668 -0.097504735
0.6045279 -0.13275684 -0.0122841075 -0.28946334 0.21134631 -0.08354771 -0.3785239 -0.016086277
-0.29120076 -0.14093833 -0.3860436 0.06352294 0.6199666 -0.09485673 0.12151934 0.08532673
0.120476596 -0.16617475 -0.15317445 -0.021938961 -0.32067546 -0.27019393 -0.1673261 -0.16722706
-0.1441178 0.43806812 0.22689606 -0.003347441 -0.08629254 -0.15896155 -0.105752766 0.51401526
-0.3468157 0.08656675 0.48748595 -0.1521752 0.085209474 -0.17435297 -0.05903048 0.24210417
-0.3720642 -0.1733809 -0.24242948 -0.21180825 0.20174812 0.105741896 -0.40699086 0.3055875
-0.068225145 0.09391304 0.15297964 -0.098241284 0.083419524 -0.18983914 0.00010196923 -0.47352883
0.009701658 0.058585305 -0.3196183 -0.1191063 0.5803081 -0.27703664 -0.4669004 -0.1788225
0.117376976 -0.3634213 -0.13671942 -0.22187719 -0.26051053 -0.10760046 0.32370996 -0.21537904
-0.24265714 -0.21026579 -0.41973665 -0.10733876 0.04463211 0.30593026 -0.09063425 0.16968037
-0.09612618 0.14682686 -0.1618088 -0.14266777 -0.035380606 -0.39908728 -0.27964023 -0.14322127
0.099085584 -0.21557426 0.12523036 -0.041215215 0.17471749 -0.17695351 -0.2825053 0.17749718
-0.27671772 -0.2288107 -0.35176936 0.12643598 -0.070146054 0.36987764 -0.20383917 -0.1981022
-0.176218 -0.093643986 0.34306094 -0.11744682 -0.13309819 -0.2516992 0.17426662 0.06204143
0.015780868 -0.27033487 -0.15068983 -0.29626796 -0.2642186 -0.119923964 0.10504799 -0.24596022
-0.34772018 -0.042701796 0.3038344 -0.17455065 0.14052002 -0.008460489 -0.40467548 -0.25457752
-0.30828416 0.12534082 -0.113366224 0.080013305 -0.27129447 -0.0338099 -0.05159017 -0.27675274
-0.0013895581 -0.05752408 0.014727922 0.018020898 -0.20078345 -0.07592015 0.109410614 -0.1668877
-0.2922665 -0.00710209 -0.19311236 -0.03634547 -0.210865 -0.33608785 0.022666756 -0.34178755

l3.weight f4 [3, 256]
00000000: 32a2 70be 18cd 49be c958 a33e d09f 68bd
00000010: 7880 01bf aefe 43bd 7bd5 853e 4d1f 273e
00000020: 5c43 00be dc91 cd3c 8c78 ed3c d0ef 413e
00000030: e30b c8bb a5ee 323e ee6f ea3d c301 933c
00000040: 5474 133f ff0a 813b 693e 65be 2836 bf3d
00000050: 83c8 5f3d 580b d0bd 55fd b6bd 2395 3cbe
00000060: 49a1 da3e ff91 28be 4f92 d73a f8e7 f03c
00000070: 0b98 b93c 00fa 1f3d 1e92 6c3c cf6e 8b3d
00000080: e3c3 dd3c 4590 453e 490e e6ba c199 3abe
00000090: bb81 d2be d4aa d23e 5b5c 3e3e 074a b8bd
000000a0: b7d6 cf3c d72c 5abd f5a4 31bc 8b0e 0fbe
000000b0: 476a 243d 98c9 9d3d df9b 85be f053 71bd
000000c0: 8300 babe aa83 80be c454 b7bc 1961 50bc
000000d0: 7297 bfbd 0213 34bf 85d9 ad3e 7336 593c
000000e0: 09bd 46bd 5083 9bbb 8e90 20be 96c0 08be
000000f0: 197d c23c a3e8 dd3d 8ffa 8a3e 20f0 b43e
00000100: e738 1e3e b0c7 90be 33aa abbe 1213 4d3e
00000110: 003c 8fbd 788a 63be 0263 4d3e 620b 3c3e
00000120: eac7 b83e 7630 b0be 84c1 a13c 2aa4 68be
00000130: 8ce1 b7be 6cac 2f3e 0614 533e b1cf 55be
00000140: 7d42 d53d 1768 3f3e 7bc2 0f3e c75c 723e
00000150: 2080 903e 8147 ae3b 21f3 033e 7589 bb3e
00000160: 213d 1cbe a496 fabd eee4 953e 98e5 ebbd
00000170: 7000 3cbe 0486 78bc c255 12bd 9b83 7b3e
00000180: 0819 0b3e f889 913e dbf7 06be 320d fb3e
00000190: 2158 afbd e962 2fbe f035 a33c a940 11bf
000001a0: 2412 983e bce1 8dbc bb93 193e 2558 3bbd
000001b0: 646a b83e d203 8a3e 0914 6a3b d210 813e
000001c0: afa5 a0be 33a4 e4bd 2aa4 d13d 24a5 3abf
000001d0: 29c8 d63e da45 953e 1e51 18be b28b 64be
000001e0: 19aa 913e 2f1a 0c3e dd88 e2be 7b11 37bf
000001f0: 7f4e 783c ebf5 70bc 010f d0be 62d4 55bd
00000200: 91e7 753e 54e2 a83e 8441 663e b2ff debe
00000210: 72f4 d5bb 4656 403e 6e41 42bd 8ecb c53e
00000220: 5c1c 6bbe ee68 773e 28f3 2d3e 48a8 ecbe
00000230: 8124 8f3e 5893 dabc 6819 3e3e 3b56 513e
00000240: ed96 7cbe bf54 723e 548c 20be 704e 8ebd
00000250: 68eb 0c3e 9a04 313e 7060 ddbd 39f0 bf3d
00000260: f009 fe3d dca2 b63d b0fd 0b3e 5641 c2be
00000270: 2420 053f 14e2 90bd 5930 863d 0181 5abe
00000280: d625 a2bd 2a8b a93e f948 74be 0443 35be
00000290: 9906 c03e a880 3abc 14bd 4abe 4337 12be
000002a0: 8f64 ab3d cad7 10be 03cb c0bd 4c4b 91bb
000002b0: 5c05 89bc c2c9 6bbd 13f4 e33d ed49 4cbd
000002c0: 6e79 b53c 82cb 12be cbf7 29bd 4f63 46be
000002d0: 876e f0be ab01 ef3e 85d7 c8be faee 0f3f
000002e0: 1301 1bbf ec3d 0e3e d79c fc3d a6e6 38be
000002f0: c7b5 a6bd 173c 76bb 1173 b2be 4797 cd3c
00000300: 3d05 cd3d fe85 72bd a647 cb3e fa79 7abe
00000310: 5fbd d33e f7e6 753d 217c 1ebe 2cb6 c03d
00000320: c8e0 c9bd 8b88 fdbe 8ba9 02be 6788 c23e
00000330: 377b 35be af1c 803e 6391 cfbd 9299 39be
00000340: 1a0d 89bb 010d 1f3c 9d65 143f 6495 b63e
00000350: 6124 073f 5a2c 67bd 46f5 373e 9493 c1be
00000360: 3731 d3be b60f 4bbe 6cc1 b8bd 688b 703c
00000370: 08d6 a2bb b8a5 83bb b2e6 c1be 3ca7 a0bc
00000380: 24c3 8dbc 15ea a23e ba67 463e a8df 72be
00000390: 5a90 83be e39b 873e ba83 04be 68ba d7be
000003a0: 43ca bfbd 4cc5 9dbe ecac da3e 1909 81bc
000003b0: 2939 8bbe 2ab8 983b 0e2b 2bbe b7e4 6c3c
000003c0: e0c5 9b3e 0601 bcbe fa2a 84be 7252 1e3d
000003d0: 1c44 063d 7ce4 983c 39e7 5abf 76d3 2abc
000003e0: de83 93be a834 53be 5d30 69be cabb 93be
000003f0: 8c68 fb3d 8b44 b4bd 1b47 863e f219 d1bd
-0.23499373 -0.19707143 0.31903675 -0.056793034 -0.5058665 -0.047850303 0.26139435 0.16320534
-0.12525696 0.025093965 0.028988145 0.18939137 -0.0061049326 0.17473848 0.1144713 0.017945176
0.5759938 0.0039380784 -0.22387089 0.09336501 0.054634582 -0.10158414 -0.08935038 -0.18416266
0.42701176 -0.16461943 0.0016446802 0.029407486 0.022655508 0.039056778 0.014439134 0.068082444
0.027070945 0.19293316 -0.0017551865 -0.18222715 -0.41114601 0.41145957 0.18589918 -0.089984946
0.025370939 -0.05326542 -0.0108425515 -0.13970391 0.040140416 0.077044666 -0.26095483 -0.05891794
-0.36328515 -0.25100452 -0.022379287 -0.012718462 -0.09355058 -0.70341504 0.33955017 0.013257611
-0.04852012 -0.0047458783 -0.15680143 -0.13354716 0.023741292 0.108353876 0.27144286 0.3533945
0.15451394 -0.2827735 -0.3352829 0.20026806 -0.06993866 -0.2222079 0.200573 0.18363717
0.36090022 -0.34411973 0.019745596 -0.22718874 -0.35914266 0.17155617 0.20613107 -0.20880009
0.10413072 0.18692051 0.14039032 0.23668204 0.28222752 0.0053185825 0.12885715 0.3662831
-0.15257694 -0.12235764 0.29276222 -0.11518401 -0.18359542 -0.015168671 -0.035726316 0.24561922
0.13583767 0.28425574 -0.13180487 0.49033505 -0.08561731 -0.17127575 0.01992318 -0.5673929
0.2970134 -0.017319553 0.14997761 -0.045738358 0.3601867 0.2695604 0.0035717508 0.25208145
-0.31376407 -0.11164131 0.1023639 -0.72908235 0.41949585 0.29154855 -0.14874694 -0.22318915
0.28450087 0.13681863 -0.44245043 -0.7151105 0.015155434 -0.014707069 -0.40636447 -0.052204497
0.24014117 0.32985175 0.2248593 -0.43554455 -0.0065293843 0.1878291 -0.04742568 0.38631862
-0.22960037 0.24161121 0.16987288 -0.46222138 0.27957538 -0.026681587 0.18564379 0.2044305
-0.24666949 0.2366514 -0.15678531 -0.069485545 0.13761675 0.17286912 -0.108094096 0.09371991
0.12404239 0.08917782 0.13670993 -0.37940472 0.5200217 -0.07074371 0.0655219 -0.21338274
-0.07917373 0.33113986 -0.23855962 -0.17701346 0.37505034 -0.011383213 -0.1979869 -0.14278893
0.083687894 -0.14144817 -0.094137214 -0.004434025 -0.016726188 -0.057565458 0.11130538 -0.04987519
0.022152629 -0.14335445 -0.04149608 -0.1937382 -0.46959326 0.4668096 -0.39226928 0.56224024
-0.60548514 0.13890809 0.12334602 -0.18056735 -0.0814014 -0.0037572437 -0.34853414 0.025096549
0.10010765 -0.059209816 0.397031 -0.24460593 0.41355416 0.06003472 -0.15477039 0.094097465
-0.09857327 -0.49518237 -0.12759988 0.37994692 -0.17722784 0.25021884 -0.10135152 -0.18124989
-0.00418247 0.00970769 0.5796755 0.3566085 0.52789885 -0.05643878 0.17964658 -0.37807906
-0.41248485 -0.19830212 -0.09021267 0.014681675 -0.004969362 -0.004017558 -0.3787132 -0.019610994
-0.017304964 0.31819215 0.19375506 -0.2371813 -0.2569607 0.2648612 -0.12940875 -0.42134404
-0.0936475 -0.30814588 0.42710054 -0.015751408 -0.27192047 0.004660626 -0.16715643 0.014458827
0.30424404 -0.3671953 -0.2581404 0.038652845 0.032779798 0.018663637 -0.8550907 -0.010426393
-0.28811544 -0.20625556 -0.22772355 -0.2885421 0.122758 -0.08802136 0.26226124 -0.10210027

l3.bias f4 [3]
00000000: 54e7 a33e 5ae6 993d 78e0 c13d
0.32012427 0.07514639 0.09466642
